server/model_ckpt/lang_en/pron_prosody_checkpoint.pt (torch, 264863 bytes, 3 tensors)

weight f4 [64, 1024]
00000000: 45ae 3ebd 7ea3 b53c b57a efbc 2f1e a5bd
00000010: 238e 9ebd 738e bd3c 11ec 53bd e225 80bd
00000020: 7d60 a4bd 04c7 6dbd 625f 923d d99e 3fbd
00000030: f6a1 683d 6757 50bd 7f5f 193d b048 5dbd
00000040: 087c 97bd 2600 8dbd 50fe e33c 9894 f73c
00000050: 7736 9ebd 01ec 703d c32c c4bc 99db 24bd
00000060: a152 103d 98f3 88bd 5e2e 04bd f159 4abd
00000070: 0928 44bd 5d01 0cbd b113 6e3d 2a5b 523d
00000080: 5524 633d 7382 8dbd b9d3 79bd d5f4 11bd
00000090: ff46 70bd f81a 953d b984 993d a80a a5bd
000000a0: d237 85bd 1d81 97bd 0412 fdbc 4cff 4d3d
000000b0: 999c 05bd ef00 9fbd 74ac 0abd 3599 abbd
000000c0: 4f9a 66bd 7969 18bd 5f54 d6bc 475e 0dbd
000000d0: ce55 7fbd 89f1 34bd 227a 95bd 0c35 f3bc
000000e0: 1c3c 93bc 1dfb a8bd 1855 3d3d 5b6c acbd
000000f0: 1899 9f3d 1858 2cbd 4622 ec3c f529 a23d
00000100: 08ed 0f3d d85f ba3c 6f0a 71bd 3fb1 3a3d
00000110: 6184 723d 00b3 aa3d 2de0 18bd 1061 10bd
00000120: bab0 87bd d6a3 a5bd 1e86 7ebd b892 293d
00000130: 2acc 23bd f18b 8bbd 9f0c 56bd 737e 86bd
00000140: 3c9d bc3c 1f24 30bd ec26 ab3d c2f7 69bd
00000150: 88b7 85bd cb53 103d a624 823d 7bb5 5b3d
00000160: 0f09 acbd 474b 833d 2436 243d 28c8 8bbd
00000170: d01b a03d dae5 49bd 2ad8 883d 01b3 9b3d
00000180: 1db7 3ebd a7df 533d 2abc 48bd c5da a2bd
00000190: 5432 94bd d875 a03d 589e 7a3d 71cb d73c
000001a0: 2cf6 483d f886 a13d 1d89 a7bd f265 143d
000001b0: 30f0 a4bd 50d7 9b3d 0a02 79bd 5bab f0bc
000001c0: 2643 6f3d faf7 503d f9a6 79bd a18e 3b3d
000001d0: c7d7 493d b700 ecbc 6cc5 a63d 3569 1b3d
000001e0: da1c fc3c 8fde 343d 9967 84bd f47f 623d
000001f0: d070 8dbd 7a7f a6bd 4c96 48bd 8e0a 1d3d
00000200: 2dfa 393d 700c 983d d35b 56bd 703d e93c
00000210: 656b 97bd fbdf c5bc 096d 82bd b41a 48bd
00000220: e28d 1bbd b3f7 9e3d c486 ac3d dd84 a2bd
00000230: e269 f33c 7db8 3c3d abf6 db3c 0fb0 37bd
00000240: 573c 12bd 3785 393d f5c5 cfbc 3fd8 eabc
00000250: a703 56bd 3069 073d 31c2 853d bdae 30bd
00000260: ff65 99bd 5ece 973d 31eb d33c 1847 9b3d
00000270: 5f06 0e3d 12f3 2c3d 3e5f 813d 3d4b 583d
00000280: 53f1 543d a104 2f3d eb04 7f3d f8f0 283d
00000290: 676c a2bd 23c7 2a3d 25b3 aabd 2f89 79bd
000002a0: e758 5e3d 5902 c8bc e31d 07bd 0d4b a53d
000002b0: f8ef aa3d bc45 a4bd 7434 8e3d cfdf 6d3d
000002c0: 9fc2 67bd 855e 923d 92c7 60bd defc 6fbd
000002d0: 276f b9bc 090d 2f3d 1f11 06bd 9436 a5bd
000002e0: b40d 8dbd 0dcd 493d 0811 793d f3d6 a6bd
000002f0: dbba b5bc e1e2 a6bd 1f7c 1f3d 627d 0d3d
00000300: 9289 853d 941f ea3c f952 1fbd eadf 62bd
00000310: 2fb3 e6bc 642c cbbc 41a1 98bd 1014 293d
00000320: e2ab a73d 3e03 ef3c d7d5 39bd ab74 a4bd
00000330: 93e4 033d 04d6 8bbd 0c5a 493d aad1 a2bd
00000340: bdf9 763d 8f44 88bd b82c 8f3d a54f 57bd
00000350: 247a 96bd 57dd 2dbd a10a 8bbd 3576 30bd
00000360: dfb3 933d 69d7 24bd 20c5 8e3d 68d6 29bd
00000370: 4b9d 34bd 474f 0d3d 3881 16bd 79e8 813d
00000380: ab39 683d 3c76 95bd ace0 7bbd 2b14 843d
00000390: 2188 69bd ef0d a33d f402 bcbc 3ce6 0d3d
000003a0: 28b6 88bd c376 5a3d 7d27 02bd 272a 133d
000003b0: 94e0 12bd 5146 943d 8680 80bd 14bc 4ebd
000003c0: f7d2 90bd a955 81bd 6392 4c3d 3d5b 0a3d
000003d0: f131 aabd 37bb c1bc ae14 683d aa2f 0d3d
000003e0: 0c36 793d 0d0d a93d 970b 083d fdb3 5dbd
000003f0: 149a 0abd f305 07bd 8d0e 833d be57 5ebd
-0.046552915 0.022172686 -0.029233316 -0.08062398 -0.07741954 0.023139214 -0.051738802 -0.062572256
-0.08026216 -0.058051124 0.07147099 -0.04678235 0.056795083 -0.050864603 0.037444588 -0.0540244
-0.07396704 -0.06884794 0.027831227 0.030222222 -0.07725232 0.05881882 -0.023947125 -0.040248487
0.03523505 -0.06687087 -0.03227078 -0.04940218 -0.047889743 -0.034180988 0.058124248 0.051356472
0.05545457 -0.06909647 -0.06099293 -0.03563388 -0.058661457 0.072805345 0.07496018 -0.08058673
-0.065047875 -0.07397673 -0.03089238 0.0502923 -0.032620046 -0.0776385 -0.03385587 -0.08378831
-0.056299504 -0.03720996 -0.026163278 -0.034513738 -0.06233769 -0.04417566 -0.072986856 -0.02968838
-0.017972998 -0.08251021 0.04622373 -0.08419105 0.07792872 -0.0420762 0.028824937 0.07918159
0.03513816 0.02275078 -0.05884784 0.04557919 0.059208278 0.08334923 -0.037323166 -0.035248816
-0.06625505 -0.0808789 -0.062139623 0.041399688 -0.039989628 -0.06813801 -0.05225813 -0.06567087
0.023024194 -0.043003198 0.08357033 -0.057121046 -0.065291464 0.03523616 0.063546464 0.05363987
-0.08400165 0.064108424 0.040090695 -0.06825286 0.07817805 -0.04929147 0.06681855 0.07602502
-0.04656135 0.051726963 -0.049007572 -0.07951883 -0.07236162 0.07834977 0.061186165 0.026342126
0.049062893 0.07887071 -0.08180449 0.036230035 -0.08053625 0.07609427 -0.06079296 -0.029378584
0.058413647 0.05101774 -0.060950253 0.04579032 0.049278047 -0.028808935 0.08143124 0.03794213
0.030775476 0.04415756 -0.06465072 0.055297807 -0.06906283 -0.08129783 -0.04897146 0.038340144
0.0454046 0.07424247 -0.052333664 0.028471678 -0.07393531 -0.024154654 -0.06368453 -0.04885359
-0.037977107 0.077620886 0.08424142 -0.07935498 0.029713575 0.04607438 0.026851019 -0.044845637
-0.035702076 0.04529306 -0.025362948 -0.028667567 -0.052249577 0.0330593 0.0653118 -0.043135393
-0.07490157 0.07412408 0.025868984 0.075819194 0.034674045 0.042223997 0.06316994 0.052806128
0.051987957 0.042729024 0.06226055 0.04124543 -0.07930832 0.041693818 -0.0833495 -0.060921844
0.054284003 -0.024415182 -0.032987487 0.080709554 0.08346552 -0.08021113 0.069435984 0.05807477
-0.05658209 0.071469344 -0.054877825 -0.058590762 -0.02263601 0.04273704 -0.03273117 -0.080670506
-0.06887379 0.049267817 0.060807258 -0.08146467 -0.022183826 -0.081487425 0.03893673 0.034543402
0.0652038 0.02857951 -0.03889749 -0.055389322 -0.028161613 -0.02480144 -0.07452632 0.0412789
0.08187081 0.02917635 -0.04536995 -0.08030065 0.032200407 -0.068279296 0.04915814 -0.079501465
0.060296763 -0.066537015 0.06990951 -0.05256619 -0.07347515 -0.042447414 -0.06789137 -0.04308148
0.07212042 -0.040244494 0.06971192 -0.04146424 -0.04409532 0.034499433 -0.036744326 0.06343169
0.05669562 -0.07297942 -0.06149356 0.06449159 -0.05701459 0.07961642 -0.022950627 0.034643397
-0.066753685 0.053335916 -0.03177594 0.03592887 -0.035858706 0.07239974 -0.06274514 -0.050472334
-0.07071488 -0.063151665 0.049944293 0.033778418 -0.08310307 -0.023648841 0.056660347 0.034469284
0.06084256 0.08254442 0.033214178 -0.05412673 -0.033838347 -0.032964658 0.0639926 -0.054282896

bias f4 [64]
00000000: 0057 74bd 155d 91bd bb41 b2bd 6218 45be
00000010: ef82 c23c 4bc4 2d3c 75e4 dbbc 4dc9 9dbd
00000020: 98b0 5b3c 632c 013d 170b e63d 9db1 8fbb
00000030: 7816 f9bb 135a 0cbd 988f 683e dc7f 42bc
00000040: 1d75 80bd afe7 a8bd f876 4cbd ca00 d3bc
00000050: 338d adbd b6c0 983c c8de 50bd 450b aabc
00000060: 18c3 debb 2bd0 5cbd d0f3 ba3c ec08 353c
00000070: 7825 33bc 652d 013b 0adc 8bbd cf1e 443b
00000080: 20eb a8bb 9470 013c 2314 4a3c b2c2 cf3c
00000090: 67cd f4bc 00b8 963c 56b3 553d 5a3f a43c
000000a0: 3843 eabb ec4d a8bd f406 11bc 84ac 4abc
000000b0: 83f6 9bbd 58ed a63b 0273 b53c a4da aabd
000000c0: 217d 30bc 7e0b e43c 9277 95bd 22c5 efbc
000000d0: 14d4 50bd a293 87bd 466e c8bd 23a8 a8bd
000000e0: 5f19 90bd 0023 953a 1c33 b4bd f072 49bd
000000f0: 98d5 9d3b 9e1b 3dbd f580 a43c 6bab 4abd
-0.059653282 -0.07097832 -0.08703943 -0.19247583 0.023744075 0.010605882 -0.026842335 -0.07704411
0.013408802 0.03153647 0.11232584 -0.004385187 -0.0076015554 -0.03426559 0.22711027 -0.011871304
-0.062723376 -0.08247315 -0.049918145 -0.025757212 -0.08474197 0.01864658 -0.05099371 -0.020757327
-0.0067981593 -0.053909462 0.022821337 0.01104949 -0.010934226 0.0019710895 -0.068290785 0.002992559
-0.005154982 0.007900376 0.0123339025 0.025361393 -0.0298831 0.018398285 0.05217298 0.02004974
-0.0071491264 -0.082179874 -0.008851755 -0.0123702325 -0.07615378 0.0050942115 0.022149567 -0.08342484
-0.010772021 0.027837511 -0.07298197 -0.029268805 -0.050983503 -0.066199556 -0.09786658 -0.082351945
-0.07036089 0.0011378229 -0.08798811 -0.04918188 0.004816722 -0.046168916 0.020081023 -0.049479883

weight f4 [1, 64]
00000000: 3a1f 89bd d3a6 3bbd 3389 423c 98dd 143f
00000010: a241 96bd 5efe 513c 1e3a 413d ab54 b23b
00000020: 4a1c e03d 12d2 7c3d e17f 313e 3391 3abd
00000030: 3854 34bd 215c 893c 43c2 a13e fa2e b0bd
00000040: 4375 2a3d 8abc e1bc 762a 00bd b9fc bbbc
00000050: 2ceb 99bc 9c93 5a3d 48c1 8a3b c684 acbc
00000060: e406 1cbd a63e 7cbd 6eb2 ba3d 4407 18bd
00000070: 4262 9d3d 9872 ac3b c4f3 70bd e98e a2bc
00000080: f04a 453c b3af 3ebc 3f1f 973c 864a b13d
00000090: 412f 623c 108b 203d 35bb de3b 6895 3ebd
000000a0: 0081 ee3a a0a9 3dbd 7e1a b93d 88eb 563d
000000b0: 70f3 25bd 9035 e83c f836 ef3b 1661 333d
000000c0: a210 7fbc 0922 a23d 1bba 483d b08f e53d
000000d0: 5d8e f5bc 0417 bc3a d560 88bc ef1c 773c
000000e0: fbc1 723c e8b3 283d 04d6 403d b844 e33c
000000f0: 40c8 883d 7375 e9bc 4623 e43b b96f 00bd
-0.06695409 -0.045813393 0.011873531 0.58150625 -0.07336737 0.0128169935 0.047174565 0.005442222
0.10942896 0.061723776 0.17333938 -0.04554863 -0.04402563 0.016767563 0.31593522 -0.0860271
0.041615736 -0.027555723 -0.031290494 -0.022947656 -0.018788897 0.053363428 0.0042344667 -0.021059405
-0.03809251 -0.061583184 0.09116064 -0.037116304 0.07684757 0.005262684 -0.058826223 -0.019843535
0.012041792 -0.01163857 0.018447516 0.08656792 0.0138052115 0.03919512 0.006797219 -0.046529204
0.0018196404 -0.046304345 0.09038256 0.052470714 -0.040515363 0.028345853 0.007300254 0.04379376
-0.01556793 0.07916648 0.04900561 0.11209047 -0.02997511 0.0014350121 -0.016647736 0.015082582
0.014816756 0.041187197 0.0470791 0.027742729 0.0667882 -0.028498387 0.0069622127 -0.031356547
