server/model_ckpt/lang_en/pron_articulation_checkpoint.pt (torch, 264927 bytes, 3 tensors)

weight f4 [64, 1024]
2.2131388 -3.0045733 -1.065763 -4.622677 -0.6018636 3.501542 -0.31961703 -9.015581
0.18836683 3.8040538 1.895715 3.758727 0.25017858 0.74695563 7.13504 -5.8948207
-2.810415 -0.5809197 0.2595292 3.1032689 0.39660287 -0.68712455 0.20808066 0.031209392
-2.06971 0.96578366 4.7721734 -0.94061476 0.2764349 0.39040324 0.8290542 0.42949423
1.6417238 -0.004545462 -0.25145125 4.6486025 0.55964506 -0.8953341 0.38549206 -3.33795
0.030277267 -1.9482372 0.4056722 0.2304331 -0.0019572026 -0.41096985 -0.4752312 5.266632
-1.8740786 -0.2552299 -2.5326958 0.9982308 -2.966702 3.091529 0.6428584 0.4911512
0.6298154 -1.2413015 1.2916609 3.4670246 0.053075437 -1.0115412 -1.2453191 0.5442066
-0.0116254175 -0.09930414 -1.9039232 -0.7497428 -0.9219331 -0.7526151 -4.440194 0.09315412
1.1908619 -0.3489128 3.1908665 2.5100458 2.06758 1.0087006 -2.1935952 2.4445748
1.3245302 0.6693606 -1.3699982 -0.6113517 -1.6460599 2.4080343 -4.1747036 7.455939
-0.81474024 -1.4541254 17.64618 -2.466373 1.3197813 1.8808285 -4.4673114 -0.9178565
0.977124 0.098344274 0.65034646 2.872105 -2.1382163 2.751664 -0.18098423 -1.0599638
-4.279608 0.111379586 -0.84306085 -0.59594965 -0.17129228 -1.2333349 0.22349554 0.3467259
-0.24148802 -0.19560334 0.27971977 -2.3124053 0.09039619 -1.7642099 -0.6070674 -1.6162597
1.7562175 -1.0008103 -0.5487261 -1.1244646 -0.70111763 -0.45003486 0.29876396 -0.68638027
1.3962387 -0.4082866 -3.9691188 1.8023273 -2.179147 0.48617107 0.077468224 -2.8579721
0.007708963 -0.34463406 0.42696497 -0.11905742 0.18510707 4.2281747 -0.42328003 0.57098305
-0.060577635 -1.2848436 1.8428193 -1.1664867 -3.2920048 0.25130093 0.83339113 -2.5664055
-0.35710996 -4.2638392 -1.2951388 -0.5653221 2.0092556 -2.6821573 -1.8202472 0.87537664
0.8668188 0.33468089 -1.122931 -1.0994025 -4.325426 -0.25440192 0.33396897 0.25316355
1.4136413 -2.2937958 -0.43066692 3.0390725 -0.32079187 -3.0670722 -0.25086337 0.04852327
-1.8480184 0.110479146 0.4706836 -0.73382473 -0.13640523 -1.283425 0.7381727 -0.11003904
4.721028 2.052991 -0.9983545 -2.711234 0.4895013 -0.14386031 0.5765132 -1.7606498
-2.4042962 4.558571 0.13933158 -2.049764 1.1869513 -1.1067191 -2.300978 2.0277655
1.9403769 0.8617152 0.56401014 4.885981 0.47127855 0.34684342 0.67126596 0.41514862
-7.0026274 -4.0332704 2.5666761 5.7626534 2.6666062 0.4173418 -2.8029053 0.9897754
0.20490189 0.5959643 2.7622032 0.6092421 -0.21777543 0.72293687 0.036226604 -2.9353838
0.6497788 -0.04832487 0.19466099 0.007847825 -4.6417966 3.2129588 -2.5870574 1.1606592
4.014684 0.82250875 2.529131 0.33921996 -0.09514962 -13.482754 -1.9364324 5.906608
2.183479 -0.39403784 -1.5797157 -0.19997337 0.62067115 -3.100401 -4.048924 -0.2838737
-0.4881427 3.1315897 -0.15633024 -0.7255113 2.8957748 0.7157108 0.82617813 -1.7987082
00000000: 11a4 0d40 ee4a 40c0 ec6a 88bf f8ec 93c0
00000010: bc13 1abf 4419 6040 d8a4 a3be d23f 10c1
00000020: 3ce3 403e 9e75 7340 caa6 f23f fc8e 7040
00000030: 6817 803e 7c38 3f3f 3f52 e440 5fa2 bcc0
00000040: d7dd 33c0 27b7 14bf 03e1 843e f59b 4640
00000050: 880f cb3e 65e7 2fbf 1913 553e d7aa ff3c
00000060: 2176 04c0 993d 773f a5b5 9840 21cc 70bf
00000070: e088 8d3e efe2 c73e e53c 543f abe6 db3e
00000080: 0124 d23f 19f2 94bb 38be 80be 5ac1 9440
00000090: e644 0f3f 9e34 65bf 375f c53e f9a0 55c0
000000a0: 0808 f83c d65f f9bf 44b4 cf3e a8f6 6b3e
000000b0: 6944 00bb a46a d2be 8151 f3be 4088 a840
000000c0: cfe1 efbf 7ead 82be b017 22c0 0e8c 7f3f
000000d0: 72de 3dc0 9cdb 4540 5e92 243f 2c78 fb3e
000000e0: 953b 213f f8e2 9ebf 2555 a53f bbe3 5d40
000000f0: a165 593d 2f7a 81bf 9e66 9fbf 2051 0b3f
00000100: 8978 3ebc f85f cbbd c1b3 f3bf 25ef 3fbf
00000110: cf03 6cbf 62ab 40bf 1216 8ec0 96c7 be3d
00000120: 2a6e 983f b3a4 b2be 2837 4c40 97a4 2040
00000130: 3b53 0440 1a1d 813f dd63 0cc0 ea73 1c40
00000140: 358a a93f 375b 2b3f 1a5c afbf 8c81 1cbf
00000150: 17b2 d2bf 3c1d 1a40 2c97 85c0 0d97 ee40
00000160: d192 50bf c820 babf 602b 8d41 0ed9 1dc0
00000170: 98ee a83f fdbe f03f 37f4 8ec0 a5f8 6abf
00000180: cc24 7a3f b968 c93d 1b7d 263f 91d0 3740
00000190: 89d8 08c0 431b 3040 ee53 39be e5ac 87bf
000001a0: 8cf2 88c0 fb1a e43d d6d2 57bf 2890 18bf
000001b0: 3e67 2fbe ebdd 9dbf 04dc 643e 0f86 b13e
000001c0: a348 77be 3e4c 48be 6e37 8f3e 73fe 13c0
000001d0: a321 b93d a1d1 e1bf c568 1bbf 99e1 cebf
000001e0: bccb e03f 8d1a 80bf 5079 0cbf 75ee 8fbf
000001f0: 727c 33bf f86a e6be 97f7 983e 9eb6 2fbf
00000200: f3b7 b23f f10a d1be 0b06 7ec0 a9b2 e63f
00000210: 2577 0bc0 6aeb f83e a9a7 9e3d 04e9 36c0
00000220: 789b fc3b e073 b0be 279b da3e 60d4 f3bd
00000230: b58c 3d3e 354d 8740 29b8 d8be f22b 123f
00000240: 4120 78bd c175 a4bf 81e1 eb3f 704f 95bf
00000250: 35b0 52c0 84aa 803e 1f59 553f fd3f 24c0
00000260: 1ed7 b6be 5f71 88c0 1cc7 a5bf f3b8 10bf
00000270: a597 0040 77a8 2bc0 dcfd e8bf af18 603f
00000280: d6e7 5d3f 4b5b ab3e 34bc 8fbf 39b9 8cbf
00000290: e469 8ac0 f840 82be fbfd aa3e a79e 813e
000002a0: 33f2 b43f 8dcd 12c0 6080 dcbe 2a80 4240
000002b0: d53e a4be e94a 44c0 2a71 80be 56c0 463d
000002c0: de8b ecbf e442 e23d 71fd f03e f0db 3bbf
000002d0: d0ad 0bbe 4547 a4bf e3f8 3c3f 265c e1bd
000002e0: a912 9740 3464 0340 2994 7fbf dc84 2dc0
000002f0: ea9f fa3e 1e50 13be 5e96 133f f95c e1bf
00000300: fddf 19c0 d0df 9140 f0ac 0e3e 552f 03c0
00000310: 05ee 973f f9a8 8dbf 3943 13c0 e9c6 0140
00000320: 455e f83f 5e99 5c3f f862 103f f559 9c40
00000330: 6c4b f13e 7695 b13e 16d8 2b3f 5c8e d43e
00000340: 8615 e0c0 8d10 81c0 6c44 2440 a867 b840
00000350: ada9 2a40 d3ad d53e cd62 33c0 ec61 7d3f
00000360: cdd1 513e 1e91 183f f0c7 3040 4af7 1b3f
00000370: 8600 5fbe 6412 393f 5962 143d 54dd 3bc0
00000380: e757 263f 4df0 45bd 3655 473e 2a94 003c
00000390: 9989 94c0 1ea1 4d40 5992 25c0 7b90 943f
000003a0: 4b78 8040 ef8f 523f 48dd 2140 3dae ad3e
000003b0: cedd c2bd 5cb9 57c1 04dd f7bf ef02 bd40
000003c0: 1fbe 0b40 54bf c9be 2034 cabf d2c5 4cbe
000003d0: 4ee4 1e3f f86c 46c0 c990 81c0 e557 91be
000003e0: d7ed f9be f76b 4840 0915 20be 1cbb 39bf
000003f0: 6054 3940 d338 373f 6980 533f 123c e6bf

bias f4 [64]
0.27129382 -0.009418085 -0.14613223 0.012349331 -0.06481126 0.057917833 -0.030879611 0.015780747
-0.053943522 -0.03151257 0.24008767 -0.04081184 -0.0087627005 0.0494362 0.08593795 -0.017381534
0.040737964 -0.026684057 0.0018451866 -0.028663907 -0.003871592 0.04930039 0.053174756 -0.0660616
-0.06569567 -0.01161192 0.009075478 0.027076611 0.00824865 -0.02538449 0.0024375767 -0.029934358
-0.088558726 0.01719245 0.065160334 -0.06299964 -0.027664987 -0.04568029 0.021922275 -0.013666954
-0.47457668 -0.018394053 -0.08183771 -0.058333416 -0.07413486 -0.037772667 -0.043681163 -0.06293401
0.0127869025 -0.04094864 0.06191498 0.02124141 0.015449058 -0.089405455 -0.0838406 -0.10977816
-0.08544795 -0.024206538 -0.065906554 0.05751885 -0.010054834 -0.049597014 -0.07221303 -0.026529614
00000000: 06e7 8a3e 504e 1abc b0a3 15be d954 4a3c
00000010: c4bb 84bd 403b 6d3d 3df7 fcbc a046 813c
00000020: e2f3 5cbd 5313 01bd 8bd9 753e 512a 27bd
00000030: 6e91 0fbc 9d7d 4a3d 3c00 b03d b863 8ebc
00000040: dadc 263d 8698 dabc 30da f13a 92d0 eabc
00000050: 89ba 7dbb 35ef 493d c6cd 593d 4e4b 87bd
00000060: 748b 86bd ec3f 3ebc 50b1 143c c5cf dd3c
00000070: 5825 073c 22f3 cfbc c0bf 1f3b e638 f5bc
00000080: 475e b5bd 2ed7 8c3c c872 853d f505 81bd
00000090: afa1 e2bc 411b 3bbd 5896 b33c 5ceb 5fbc
000000a0: b7fb f2be 20af 96bc 889a a7bd 05ef 6ebd
000000b0: 04d4 97bd 83b7 1abd 05eb 32bd 8ce3 80bd
000000c0: 2880 513c c3b9 27bd 909a 7d3d 7702 ae3c
000000d0: 0c1e 7d3c 351a b7bd 9fb4 abbd 5fd3 e0bd
000000e0: 56ff aebd ca4c c6bc 04fa 86bd e398 6b3d
000000f0: 08bd 24bc 3d26 4bbd 6de4 93bd a254 d9bc

weight f4 [1, 64]
0.10355301 0.077947095 0.09620536 0.030774381 -0.03979658 0.029473161 -0.0421352 -0.120484814
-0.018748512 0.022441521 0.2231689 0.012280762 0.029533083 0.024069615 0.056265797 -0.07982035
0.036551137 -0.04452827 -0.009047281 0.071671054 -0.036786623 0.073974244 0.067942485 -0.00019730319
0.048005436 0.0068755895 0.059397265 0.043440018 0.10076718 0.029920429 -0.08903724 0.10604213
0.05854752 -0.008162305 0.049452867 -0.041091245 -0.048717763 -0.018117301 -0.11854902 -0.104616955
-0.18046893 -0.087080106 -0.016622378 -0.047975253 -0.00091422664 0.06477625 0.056816712 0.047949173
0.011474282 0.0666709 0.030599909 0.045702007 0.07537387 -0.0401566 0.0017756107 0.029774636
-0.002335539 -0.054563373 -0.025592236 0.023468548 0.0053266734 -0.0029751975 0.0369657 -0.037426144
00000000: 9a13 d43d baa2 9f3d 5107 c53d 8e1a fc3c
00000010: bd01 23bd b371 f13c f695 2cbd bec0 f6bd
00000020: 7b96 99bc 48d7 b73c 6386 643e 4035 493c
00000030: 5def f13c a42d c53c f776 663d da78 a3bd
00000040: a5b6 153d 4663 36bd 0c3b 14bc 46c8 923d
00000050: 92ad 16bd cf7f 973d 6e25 8b3d 2ce3 4eb9
00000060: 59a1 443d a04c e13b 8c4a 733d 29ee 313d
00000070: 065f ce3d b01b f53c 2859 b6bd 9e2c d93d
00000080: 86cf 6f3d 30bb 05bc 178f 4a3d 4b4f 28bd
00000090: 478c 47bd bc6a 94bc d4c9 f2bd 6a41 d6bd
000000a0: d9cc 38be 0e57 b2bd a72b 88bc b381 44bd
000000b0: b6a8 6fba 69a9 843d a4b8 683d 5a66 443d
000000c0: a0fe 3b3c c18a 883d a9ac fa3c 0732 3b3d
000000d0: 9e5d 9a3d 3f7b 24bd 9cbb e83a f0e9 f33c
000000e0: d80f 19bb d87d 5fbd cfa6 d1bc 1d41 c03c
000000f0: 608b ae3b 88fb 42bb 5969 173d 284c 19bd
